param/ppo_cnet_params.pkl (torch_old, 2749 bytes, 3 tensors)

fc.weight f4 [100, 3]
00000000: 121e 30bf 1299 3d3e ed55 a4be 7fcf 02bf
00000010: 480b 8abe e22a 36be 9621 2ebf d1d7 bdbe
00000020: fd8d 2fbe 7f0f 1ebf 43bb e83e 9df0 89be
00000030: efd2 5c3f 5d5a 9e3f 9085 ab3e f818 ee3e
00000040: 2f4b 983f 3635 8f3e 193a afbc 55fb ae3f
00000050: 7076 983e f044 b1bd 4976 55bf f6fe edbe
00000060: f80d 873f f6de 5bbe bbf1 e2be 83cb bc3e
00000070: 2cee 753f 65ff b6bc 35f6 383f fdf0 fc3e
00000080: 80bb 863e 3ca7 ef3c 7fa7 80bf 6135 07bf
00000090: ff9f 3ebf 6253 c2be 68a7 74be aa0c 053f
000000a0: 4978 1e3f d6b8 583e af03 0ebf 6d00 063f
000000b0: 7bc8 94be ce3c 4d3f 812b 0bbf a381 60be
000000c0: 3be1 943d 89c9 593e 150f f43e bc34 61be
000000d0: ad38 a5bf dacc 97be 0aba d23e f88b ee3e
000000e0: fd66 aebe 4c12 473f 8d0d 49bf 5a72 87be
000000f0: 5f4e d63e 5e21 56bf 4aab c53e a287 913f
00000100: 480c 653e 9e27 c13e a580 1bbe f5b3 033e
00000110: d227 14bf f528 1c3f 04d7 483f 9b06 733e
00000120: 27d1 043f 0d1d 8a3d 69fe 8bbe 82bf 973e
00000130: 51da 2d3f 1518 70be 4832 013f bdaf dbbe
00000140: 1ef9 bc3d 5157 ba3e 0c13 3b3e 0e40 bd3e
00000150: 777a 873e 3d6c 2ebf ea89 6e3e 54fd babd
00000160: 1d4b 303f 90f2 95be f13b 0a3f 076a 273f
00000170: 46bc 95be 2017 01bf 374a 8abc 4c7f e4be
00000180: 79e9 243f d6aa 8abd 9ecc 9fbe df8f c93e
00000190: 5bd8 83bf e53b 6cbd 0c0e 2fbf 22db b5be
000001a0: ffb6 32be 0786 913d 4173 f0be 469c ec3e
000001b0: 6e60 e2bd de94 7dbf f6b7 ffbe 94a5 61bf
000001c0: 18c2 06be a407 c4be 83f8 2ebe 5ba0 933f
000001d0: 1ffb a33e ead8 3e3f ff1c 093f 1629 d4be
000001e0: 8e79 ca3e 17af 98bf f084 98be e7f1 e23d
000001f0: cfe7 a03e d996 f9be 1d90 1d3f 50cb 03bf
00000200: 2b48 58be 66a5 3e3f 125c e9be e3c5 82be
00000210: d2ae 79be 2f44 393f 45e6 53be d3fe 473d
00000220: ed95 62be 57dc cfbe c9c4 2fbf bd23 7a3f
00000230: 1fa0 b13e 9cc9 103e c902 a43f f3aa ae3e
00000240: 59eb 2b3f 2939 04bf 117b 63be 2bdd c4bc
00000250: 1dbb 83bf 72af 60be 6b03 843f 2822 dc3d
00000260: b80a e7bd b5ef f73c fcfe e4be af68 f13e
00000270: 306e 21bf fb88 34bf 1400 14bd 21ec 3f3f
00000280: c71c 19bf 900f 063f 0a06 cd3e 730e 26bd
00000290: 1b98 8f3e 9913 463f 5372 1fbf 2d04 82be
000002a0: b581 f23e 46aa 10bf c332 8b3e 686f c03e
000002b0: 4043 a13e 755c b4be 6659 393f ed3a be3e
000002c0: 5792 ea3e 55a1 79bf c0bd 96be 25c0 e93e
000002d0: 6f4f 113f ed59 5dbd c0b6 9dbe 3e7d f2bd
000002e0: ceb0 c9bd 8035 06bf 40cb f53c d01e d13d
000002f0: 0024 00ba 2c96 c73e e124 a43f 55b3 9a3e
00000300: 5008 c4be e619 8dbf 90e5 a3be 2b3f b93d
00000310: ccc0 4cbf 5d31 68be f4fa 113f 0a56 4dbe
00000320: d4f3 003f df2f 4ebe 4954 83be da03 073f
00000330: f3cd 6d3f 8214 a53e 145b b43e 202a 893e
00000340: f846 90bf 922e 75be 8601 af3e 544a afbe
00000350: f26c 4a3e 50a2 62bd 1b5f 5a3e d71b f03e
00000360: 7d6f 44be 5219 803c 5729 0c3f 6a31 c43c
00000370: 43ce d8bd 1953 5dbe 759d f8be 3e03 12bf
00000380: 414c 3b3c 421f 0cbf e1c8 623e 3385 343e
00000390: 6f7d 0e3f 2c19 17bf fc9f 393e 8be6 ef3c
000003a0: d891 59bf cd49 513e 9c6e 0f3f 685e 15bf
000003b0: d084 30be 1f36 6d3f 54c1 283f 27cb 993e
000003c0: 0499 283f ce06 1e3f 8971 7b3e 674b ef3d
000003d0: 22d4 a83f e364 cc3e c100 d43e 3a41 153f
000003e0: c7bb 283e 69e8 3c3f 7040 95be 6f16 80be
000003f0: fff6 063f bb76 0fbf 9b21 b93e b9d8 fbbd
-0.68795884 0.18515423 -0.32096806 -0.51097864 -0.26961732 -0.17789796 -0.6802 -0.37078717
-0.17144008 -0.61742395 0.4545537 -0.26941386 0.8625936 1.2371327 0.33500338 0.46503425
1.1897944 0.27970284 -0.021390008 1.367045 0.2977786 -0.08655727 -0.83383614 -0.46483582
1.0551138 -0.21471772 -0.4432505 0.36874017 0.96066546 -0.022338578 0.7225068 0.4940261
0.26314926 0.029254548 -1.0051116 -0.52815825 -0.74462885 -0.3795424 -0.23891985 0.5197245
0.6190229 0.2116426 -0.5547437 0.523444 -0.29059204 0.80170906 -0.54363257 -0.21924452
0.07269522 0.21268286 0.47667757 -0.21992773 -1.2907921 -0.29648477 0.41157562 0.46591163
-0.3406295 0.77762294 -0.785363 -0.2645443 0.41856667 -0.83644664 0.38607246 1.1369517
0.22367966 0.37725538 -0.15185793 0.12861617 -0.5787326 0.60999995 0.7845309 0.23732989
0.5188164 0.06743822 -0.27342537 0.29638296 0.6791125 -0.23446687 0.5046735 -0.42907515
0.09227203 0.36394742 0.18268985 0.36962932 0.2646062 -0.6813391 0.23294798 -0.0913035
0.68864614 -0.29286623 0.53997713 0.6539616 -0.29245204 -0.5042591 -0.016881092 -0.4462837
0.6441875 -0.067708656 -0.31210798 0.39367577 -1.0300401 -0.057674307 -0.6838081 -0.35518748
-0.1745262 0.07105642 -0.46962932 0.46212977 -0.11053549 -0.9905528 -0.4994504 -0.8814328
-0.13159978 -0.3828708 -0.17086987 1.1533312 0.32027528 0.74549735 0.5355987 -0.41437596
0.39545864 -1.1928433 -0.29788923 0.110812955 0.31426856 -0.487479 0.61548024 -0.51482105
-0.2112128 0.7447113 -0.45578057 -0.255416 -0.24383095 0.72369665 -0.2069331 0.048827004
-0.22127505 -0.40597793 -0.68659645 0.9771078 0.34692475 0.14139408 1.281335 0.341148
0.6715599 -0.5164972 -0.22214915 -0.024031242 -1.0291477 -0.21941927 1.0313543 0.10748702
-0.11281341 0.030265668 -0.44725788 0.4715018 -0.6305876 -0.70521516 -0.036132887 0.7496968
-0.59809536 0.52367496 0.4004367 -0.040541124 0.28045735 0.77373654 -0.6228382 -0.2539381
0.47364584 -0.56509817 0.27187166 0.37584996 0.3149662 -0.3522679 0.72402036 0.37154332
0.45814773 -0.975118 -0.29441643 0.45654407 0.5676183 -0.054040838 -0.3080349 -0.11840294
-0.09848176 -0.52425385 0.030004144 0.10210955 -0.0004888177 0.3898176 1.2823755 0.30214944
-0.38287592 -1.1023529 -0.3201108 0.090452515 -0.79981685 -0.2267508 0.5702355 -0.20052353
0.5037205 -0.20135449 -0.25650242 0.5274025 0.9289238 0.3224221 0.35225737 0.2678995
-1.1271658 -0.23943546 0.3418085 -0.34236395 0.19768122 -0.055330575 0.21325342 0.4689624
-0.19183154 0.015637074 0.5475058 0.023949344 -0.10586216 -0.2161373 -0.4855763 -0.570362
0.011431755 -0.54735196 0.22146942 0.17628936 0.55660146 -0.59022784 0.18127435 0.029284736
-0.84988165 0.20438309 0.5602815 -0.5834718 -0.17238164 0.9266071 0.65919995 0.30037805
0.65858483 0.61729133 0.24555029 0.11684304 1.3189738 0.3992072 0.41406825 0.5830265
0.16477881 0.7379213 -0.29150724 -0.25017115 0.52720636 -0.56040543 0.3615845 -0.12297196

fc.bias f4 [100]
00000000: 8b0a 1b3e 3daf 1c3f 6454 093f c967 ea3d
00000010: c562 21bf 7787 94be d2eb dd3d 13fd 4bbe
00000020: d239 413f 04bc 003f ef6f ae3e 0671 413d
00000030: f16f 4f3f 4e35 b63e 623b 13bf bb4f 1dbf
00000040: 25fc 103e 1c88 de3d 98aa 1c3f 1599 2cbf
00000050: 4484 68be 90ee 2e3f d5d3 bb3e 5b62 efbe
00000060: d881 b13e 2ed0 11bf 5ef0 323f f2d6 9e3e
00000070: 4d3b 573f 4574 17be cf36 cabe 97c6 103f
00000080: 8a91 443f c457 1d3f e763 0e3f 2f21 0cbf
00000090: fe57 a63e 7e08 efbe 0c73 3b3e f4f4 913c
000000a0: c2ad c6be b7ef 96bd 2a76 a23e c86f b93e
000000b0: b42f cbbe b0a2 50bf 67b5 0e3f 3072 8cbd
000000c0: 14cd 9a3e cda4 82bd b565 06bf a28f c2be
000000d0: 55a7 ed3e bc72 143f e99b 7a3e da46 ab3e
000000e0: ec62 103f ee28 7f3e 02c7 7cbf 06da 2fbe
000000f0: 9103 4f3f cf5b 36bf 0bf9 12bf d102 71be
00000100: 3866 b63e 4be8 ffbd 84d5 933e ee35 d13e
00000110: f931 bd3e 302b 97be d176 3e3f 0e2f a43e
00000120: 2ae0 b5be 1cf9 f7bc b60e 9c3e d83b 103f
00000130: 1828 c7be 0ef8 273f 7ea2 d7be d2c8 5dbf
00000140: 882b bc3e 6bdc 0ebe e0ef ac3e 5ea4 413e
00000150: cd41 58be e03d 58be 5d4a 593e d181 733e
00000160: 1db4 08be 47b6 2f3f 9d23 093f 908c cbbd
00000170: 503f 133f 8030 693e d730 f73e 349e 8d3d
00000180: 8cd0 773e 782a 523e ab4a e13e 378d 10bf
0.1514074 0.6120489 0.53644395 0.11445577 -0.63041335 -0.290096 0.10835995 -0.19920759
0.7547885 0.5028689 0.34069774 0.04722693 0.81030184 0.35587543 -0.57512486 -0.61449784
0.14158686 0.108658046 0.61197805 -0.67421085 -0.22706705 0.6833277 0.36685053 -0.46754727
0.34669375 -0.5695828 0.6989802 0.31023365 0.8407486 -0.14790447 -0.3949494 0.56553024
0.76784575 0.61462045 0.5562119 -0.54738134 0.32489008 -0.46686167 0.18305606 0.017816998
-0.38804442 -0.07369941 0.31730777 0.36218095 -0.39684832 -0.8149824 0.5574555 -0.06857717
0.30234587 -0.063790895 -0.5249894 -0.38000208 0.46416727 0.5798757 0.24473538 0.33452493
0.5640094 0.24917957 -0.9874116 -0.17173013 0.80864817 -0.7123384 -0.5741126 -0.2353623
0.35624862 -0.12495478 0.28873837 0.40861458 0.3695219 -0.29525137 0.7440005 0.3206715
-0.35522586 -0.030270152 0.30479974 0.56341314 -0.38897777 0.65612876 -0.4211616 -0.8663455
0.36751962 -0.1395127 0.3377676 0.18910357 -0.21118851 -0.21117353 0.21219774 0.2377999
-0.13349958 0.6863751 0.53569967 -0.099389195 0.5751848 0.22772408 0.4827945 0.069149405
0.24200648 0.20524013 0.4400228 -0.56465477

v_head.weight f4 [1, 100]
00000000: b836 8b3c 8f8e 4ebe 3047 f0be 5c8c 263d
00000010: 72da 36bf 55cb 38bf e158 11bf 0fdc 1abe
00000020: 0eea 563e e782 d03e 7af4 e83e d7a9 55be
00000030: 8cb8 45be 14ac 093f 5540 513d 8a11 febe
00000040: b160 8bbb 62aa a5be 869d 7f3e ab47 3cbf
00000050: 907e 3dbf d9ff 9b3e a6dd c5bc ff85 0bbf
00000060: 34e2 5d3e 4493 dd3e 1643 193e 6bf8 c23d
00000070: 11d2 6b3e 28e2 95bc 0195 a43e a9e6 b2bd
00000080: 12ab 763e 3548 cc3e c8e8 f4be e41d 8a3d
00000090: 3b6f 5cbe cdba 8b3e 5208 9cbe 83bb 4d3e
000000a0: ad96 bebe 5da2 bebc 4199 cf3e e276 e93e
000000b0: 37a4 6e3e 6208 2dbd 82c7 acbe 5d4e 51be
000000c0: 50f6 a63e e912 04bf 5621 363f e158 023e
000000d0: f345 00bf 7a59 b53d e09e 983e d5b1 9c3e
000000e0: 1f8e 4e3e 6447 083d d676 07be ce92 493e
000000f0: fd24 6b3e bbd3 163d aa16 2bbd 7714 13bf
00000100: 8790 5fbe 05db a3be a429 1b3e 99ed 423d
00000110: 53a2 d63e 35ea c0be e821 8a3e c354 98bc
00000120: 353e 3f3d 5655 ebbd 7f30 09bf 4ade b5be
00000130: 4cee 043f b48d 103e b541 c4be 30b3 0ebf
00000140: a7f0 c23e 42e6 9cbe 926e 083f f0da 113e
00000150: 7489 d73e 2bf1 14bd 307e b83e 6a23 fb38
00000160: 0dfe fcbe e453 673e ca3c b0be bf07 10bc
00000170: 4d70 b1be d540 b5bd bddd e23e c9eb 83be
00000180: 8122 04bf 1f2a 823e e365 bcbe 40d6 b1be
0.016993865 -0.2017157 -0.46929312 0.0406612 -0.7142707 -0.7218526 -0.56776243 -0.15123008
0.20987722 0.4072487 0.4549902 -0.2086557 -0.1930868 0.53778195 0.051086742 -0.49622756
-0.00425347 -0.32356554 0.24962434 -0.73546857 -0.74021244 0.30468634 -0.024153542 -0.54501337
0.21668321 0.43276417 0.14966998 0.09520038 0.23029353 -0.018296316 0.3214493 -0.08735401
0.24088696 0.3989884 -0.47833848 0.067439824 -0.21526806 0.27290955 -0.30475098 0.20091061
-0.37224331 -0.02327078 0.4054661 0.45598513 0.2330483 -0.042244323 -0.33745962 -0.2044005
0.32609797 -0.51591355 0.71144617 0.12729217 -0.50106734 0.08854957 0.29808712 0.30604425
0.20171402 0.03327121 -0.13228926 0.19684908 0.22963329 0.036823016 -0.04176966 -0.574531
-0.21832477 -0.32003036 0.15152603 0.047589872 0.4192072 -0.37678686 0.26978993 -0.018595105
0.046690185 -0.11490886 -0.53589624 -0.35521156 0.5192611 0.14116555 -0.3833138 -0.5574217
0.38074228 -0.30644423 0.53293717 0.14243674 0.42097056 -0.03636281 0.36033773 0.00011975209
-0.49412575 0.22590595 -0.34421378 -0.008790909 -0.3465599 -0.08850256 0.44309798 -0.25765827
-0.5161515 0.2542276 -0.36796483 -0.34733772
