param/ppo_anet_params.pkl (torch_old, 3391 bytes, 4 tensors)

fc.weight f4 [100, 3]
000000 0e 41 71 3e b0 6f 0b 3e 15 b5 ef be 4b 8e 22 bf
       0.23559973 0.13616824 -0.46817842 -0.6349837
000010 98 af 2a be 64 33 73 3e 25 e4 db 3d c8 16 3a 3f
       -0.16668546 0.23750073 0.107368745 0.7269101
000020 95 8a a1 bc cc 09 89 3e 3c b0 12 bf ed 3e 4c be
       -0.019719401 0.26765287 -0.5730016 -0.1994588
000030 d6 b9 d2 be 13 7b 26 bf 02 10 15 be b9 3f c0 3e
       -0.41157407 -0.65031546 -0.14556888 0.37548617
000040 51 28 d8 3e 3b 5d c3 3e 7e 28 15 bf da 1e 96 be
       0.4221826 0.38157067 -0.5826491 -0.29320413
000050 e4 67 91 3e d6 8d 91 3e 53 1a 14 bf 6f a8 c8 3e
       0.28399575 0.28428525 -0.5785267 0.39191005
000060 fc 29 10 3e a5 08 d2 3e b9 91 09 3f 20 57 c4 be
       0.14078516 0.4102222 0.5373798 -0.3834772
000070 2d b6 24 bf b6 16 1a bd 90 a4 1b bf d2 67 b3 3e
       -0.6434048 -0.037619315 -0.6079798 0.35040146
000080 a0 fb e2 be 65 32 26 bf ae cf c1 be ab a1 0b bf
       -0.443326 -0.64920646 -0.3785376 -0.5454356
000090 eb 03 2e bf d4 00 f0 3e 1a 71 94 3e 60 d0 0b 3f
       -0.6797473 0.46875632 0.2899254 0.5461483
0000a0 61 47 c1 be d5 c5 a3 be be 31 65 be c6 a8 da be
       -0.3774977 -0.3198687 -0.22382256 -0.4270689
0000b0 2f 51 e2 be cd 38 60 bd 43 c7 70 3f 2e 3f 8d 3e
       -0.44202563 -0.05474167 0.9405405 0.27587265
0000c0 fa 8d d5 be a7 04 7c 3e bf 50 b8 3e c3 e5 21 3f
       -0.41709882 0.2461115 0.35999104 0.63241214
0000d0 76 c7 1f 3f 4f 64 8a 3e b7 35 a8 3e 14 69 4d bf
       0.6241373 0.27029654 0.3285348 -0.8023846
0000e0 12 c6 07 bc d5 be e7 bd 03 ee 24 bf 8a 14 8a be
       -0.00828697 -0.11315695 -0.6442568 -0.26968795
0000f0 36 db e5 3e 37 70 79 bc 6f 45 a8 be d6 d6 81 3d
       0.44893807 -0.015224508 -0.32865474 0.06339805
000100 f1 48 2c 3f 4e ad c1 bd 97 e3 89 be a9 c4 5a 3e
       0.672988 -0.09456883 -0.2693145 0.21364082
000110 72 d9 9d 3e 5a 25 32 3f f2 a5 51 bf bb 99 9a be
       0.3082996 0.69588244 -0.8189384 -0.30195412
000120 37 51 a9 3e b1 39 25 3f 30 80 e1 3e 33 4b b2 3e
       0.33069775 0.64541155 0.44043112 0.34822997
000130 7f 8e 9a 3e fd 96 04 bf bf 42 33 3e c7 40 22 bf
       0.3018684 -0.5179289 0.1750593 -0.6338009
000140 4e 2f f7 be 0b df 9e 3e 44 5a 52 3f 47 60 0d bf
       -0.48278278 0.31029543 0.82168984 -0.5522503
000150 83 f7 01 3e f0 21 ec 3d e4 0a f3 bc 0c 41 b3 be
       0.12692074 0.115299106 -0.029668279 -0.35010564
000160 28 3a 55 3d 0b 41 c3 be ad 4d 0a 3f 9f a5 04 3f
       0.052057415 -0.3813556 0.54024774 0.5181522
000170 54 6c e7 3e c2 e3 15 3f be f3 5c bf 0c ea bb be
       0.45199835 0.58550656 -0.8630942 -0.36702
000180 76 4d ea 3e 49 ac 43 be 97 27 de be 0f 69 b1 bd
       0.45762223 -0.1910869 -0.4338958 -0.086626165
000190 4e fd 76 3f 21 93 93 3e 09 26 28 bf dc d7 61 be
       0.9648026 0.28823188 -0.6568304 -0.22055
0001a0 04 bc 10 bf fd 2a c2 be 14 20 9f be 4d 38 e9 be
       -0.5653689 -0.37923422 -0.3107916 -0.45550767
0001b0 cc 5f 8a 3d 74 2c 04 3c 15 73 31 be 36 a4 0f 3f
       0.06756553 0.008067239 -0.17329057 0.5610994
0001c0 7f 9b 16 3e c1 0a 08 3f 3e f0 ec 3e aa e7 66 bf
       0.14707755 0.5314141 0.4627704 -0.9019724
0001d0 55 60 7d be 73 49 e8 3d df 3f 12 3f 8c 67 48 3e
       -0.24743779 0.11342134 0.5712871 0.1957075
0001e0 6a 8e 06 be bd 8b a1 3c 15 23 9f be 44 62 54 be
       -0.13140264 0.019719953 -0.31081453 -0.2074061
0001f0 4b 5c 1f bf e6 25 a0 be 13 d8 8d bd 03 ce d9 be
       -0.622502 -0.31278914 -0.069259785 -0.42539987
000200 b9 74 1b be f1 08 0b bf 06 01 77 be 4f 5a 81 3e
       -0.15181245 -0.5431052 -0.24121484 0.25264212
000210 0a 1b 74 be b6 c7 dc 3d 16 16 d4 3e b4 97 d9 bc
       -0.2383844 0.10780279 0.414231 -0.026561595
000220 3c 12 6a be 35 f8 2f bd f8 46 bb 3e cc b0 62 3f
       -0.22858518 -0.042961318 0.36577582 0.8855102
000230 77 44 03 3f 69 e2 c0 3e 6f 72 3f 3f 9c 7b 43 3a
       0.51276344 0.37672737 0.74783987 0.0007457079
000240 8f c2 4a bf 61 6f c1 bd 49 ff da 3e b1 db 83 be
       -0.7920312 -0.09445072 0.42772892 -0.2575355
000250 d3 3c cb bd f6 05 e7 be 4b 92 ef be 76 80 29 bf
       -0.09923711 -0.45121735 -0.467913 -0.6621164
000260 9b d5 ac 3d 96 cc e4 3e e4 0a a0 bc 20 2e 17 bf
       0.084391795 0.44687337 -0.019536443 -0.59054756
000270 72 fc 06 3f 60 a7 4b bf f7 84 77 be 47 4c 01 be
       0.5272895 -0.7955227 -0.24171816 -0.12626754
000280 77 fc f8 be 83 13 00 be 10 38 34 bf b3 40 fd be
       -0.48630115 -0.12507443 -0.70398045 -0.49463424
000290 82 dc 7c be 1f 0d f1 bd 2a fd 33 bf d9 40 57 3e
       -0.24693492 -0.11770081 -0.7030817 0.21020831
0002a0 b5 fd 64 bf c8 88 38 3c ff 61 02 3f 49 05 b0 bd
       -0.89449626 0.01126308 0.5093078 -0.08594758
0002b0 a4 63 15 3f 44 c3 6c 3e 84 11 43 bf be 3c 99 3e
       0.58355165 0.23121363 -0.761986 0.29929155
0002c0 2e 71 77 be 94 ac aa be b4 b1 38 3f c2 f8 f6 be
       -0.24164268 -0.33334792 0.72146153 -0.48236662
0002d0 4a 7e a7 3e 8c 1e ab bd 7f 25 d3 3e 1c a7 e3 3e
       0.32713538 -0.08355436 0.41239545 0.44463432
0002e0 f3 24 77 3e 28 01 87 3e 4d 79 f1 bd 93 b7 83 be
       0.24135189 0.2636807 -0.117907144 -0.25725994
0002f0 ee 98 02 bf 5b 68 fa 3e 48 01 79 3f 57 73 d0 3e
       -0.510146 0.48907742 0.9726758 0.40712997
000300 c2 1c fb be 02 a8 0c be e0 0d d5 be 8c 92 bc be
       -0.49045378 -0.13735965 -0.41612148 -0.36830556
000310 c0 22 43 bf 24 63 81 3e 42 25 9d be fd 58 84 be
       -0.762249 0.2527095 -0.30692488 -0.25849143
000320 dd 11 a7 3c 7b 4a 71 3e 9b 9a e6 be f6 3a d3 be
       0.02039426 0.23563568 -0.4503983 -0.4125592
000330 af 05 29 bf 40 61 87 3e 8f da a0 be cc b1 14 3f
       -0.660243 0.26441383 -0.31416747 0.58083797
000340 b9 e2 0f 3f 52 68 6e 3e bb aa b1 be af 48 51 3d
       0.56205326 0.23281983 -0.3470057 0.051094707
000350 10 5e 20 3e 29 9b 36 be f5 0d dc be 96 56 1b 3e
       0.15660882 -0.17832626 -0.42979398 0.15169749
000360 32 7d 55 bf ab 44 b7 be 9a d2 ef 3e 67 8e 54 bf
       -0.8339416 -0.35794577 0.46840364 -0.8302979
000370 a0 98 6b 3e a5 78 0e 3f 56 a9 eb 3e 19 1b 00 be
       0.2300744 0.5565284 0.4602763 -0.12510337
000380 fc 70 05 bf 35 01 50 bd 22 26 d6 be e9 7f 4b be
       -0.52125525 -0.0507824 -0.41825968 -0.19873013
000390 12 2d 57 be 8c 19 53 3e a9 79 cc 3b ae 3a c9 3e
       -0.21013287 0.20615214 0.006240089 0.39302582
0003a0 a4 35 21 bd 57 f8 09 3f 98 6c ee 3e 1d 5e b9 bd
       -0.039357796 0.5389456 0.46567225 -0.09051154
0003b0 93 6e af 3e c0 af d4 be 15 61 21 bf d9 ef 7b 3e
       0.3426405 -0.41540337 -0.6303876 0.24603213
0003c0 ad 47 f8 3d fa 7c 53 3f 99 ca 33 be ad 7d 37 be
       0.12123046 0.82612574 -0.17557754 -0.17919035
0003d0 d6 f7 06 3f c3 b0 11 bf 01 07 dc 3e 9e a2 14 bf
       0.5272192 -0.5691034 0.42974094 -0.58060634
0003e0 73 57 33 be ea 34 04 be 15 f8 32 bf f1 b3 39 3e
       -0.17513828 -0.1291081 -0.69909793 0.18135048
0003f0 46 aa 1f 3f 0f c3 ef be 16 f0 a7 be 18 62 98 be
       0.6236919 -0.46828505 -0.3280036 -0.2976234

fc.bias f4 [100]
000000 9a 2d cd be 86 f7 0f 3e f5 21 70 bd 9e 4a c6 3d
       -0.40073854 0.14059266 -0.058626134 0.09682201
000010 f0 2e 90 3e db d2 4f be 60 37 27 3e 51 51 90 3e
       0.2816081 -0.20295279 0.16329718 0.2818704
000020 6e d5 83 3e 74 69 c3 3d 4a 84 c1 be f4 2e 19 be
       0.2574877 0.09541598 -0.3779624 -0.14959317
000030 bb 8c a3 3d 72 06 4e be cd d7 00 bc 6d 82 00 3f
       0.079858266 -0.20119646 -0.007863951 0.50199014
000040 90 eb b6 be a1 6c bf 3c fe 79 b5 3e ee d5 8e 3e
       -0.35726595 0.023367228 0.35444635 0.2789759
000050 b5 d5 8e 39 39 31 64 3e 8a f7 06 bf 8a d6 7a 3d
       0.00027243575 0.22284402 -0.52721465 0.061239757
000060 57 e9 da 3e ca 91 04 3f f6 35 a6 3e 7e 1d 3c 3e
       0.4275615 0.51784956 0.32463044 0.18370625
000070 f7 62 b8 3e 3f 2b 90 be 58 84 8e be 3f b9 90 be
       0.36013004 -0.28157994 -0.27835345 -0.28266332
000080 51 26 13 3f 26 c2 f2 3e bd 86 d9 be ca e5 bb 3d
       0.5748034 0.47413749 -0.4248561 0.09174688
000090 c0 22 09 3f 72 9d 12 3f 41 bd f6 3e 39 2e eb 3e
       0.5356865 0.5727149 0.48191264 0.45933703
0000a0 67 d2 f6 bd b0 38 c6 be ae c5 04 3f 93 67 b2 3e
       -0.1205185 -0.38715124 0.51864135 0.34844646
0000b0 6e 9c cb be 85 3c 0c 3f 8a 46 c0 3e 78 42 b4 3e
       -0.39767784 0.54779845 0.37553817 0.35206962
0000c0 bb 2f 97 be 31 64 26 3e 77 37 14 be d2 16 b7 3e
       -0.29528603 0.16249157 -0.14474283 0.35759598
0000d0 db e3 fd bc aa 22 92 3e 5e 97 3f 3d 74 ad a0 3e
       -0.030992439 0.28542072 0.046775214 0.31382334
0000e0 5c 77 65 be 00 3d b5 3e 05 61 7d be 0d a7 91 3e
       -0.22408813 0.35398102 -0.24744041 0.28447762
0000f0 d8 0a a5 be a1 13 c5 be d3 b1 f3 be 62 28 03 3f
       -0.32234836 -0.38491538 -0.47596607 0.51233494
000100 d9 e7 77 3e 19 41 0f 3f 48 21 01 3f 6e eb 27 bf
       0.24209537 0.55958706 0.5044141 -0.6559361
000110 31 f5 8b be 3a 91 5c bd 08 37 93 be 61 b1 b7 3e
       -0.27335504 -0.053849436 -0.28752923 0.35877517
000120 f3 e9 9e be 04 44 9e be 9e 81 15 bf 0b d6 cc be
       -0.31037864 -0.30911267 -0.58400905 -0.40007052
000130 3d 0c 06 3f 63 13 d5 3e 25 90 95 3e d2 6b 00 3f
       0.52362424 0.41616353 0.29211536 0.5016452
000140 c2 e1 15 3f 19 80 50 3c 75 4a 2e 3e fb 5a f9 3e
       0.58547604 0.012725853 0.1702059 0.48702225
000150 3b 7d 33 3e 5a dd 1f 3f 49 a4 d5 3e 24 49 99 3e
       0.1752824 0.6244713 0.41726902 0.29938614
000160 63 64 1e be 35 d7 b2 3e f0 a4 07 3e 97 f7 c3 bd
       -0.15467982 0.34929815 0.13246512 -0.095687084
000170 fa 30 6b be e1 74 ad be 0c fb a0 be d3 f3 01 3f
       -0.22967902 -0.33878234 -0.31441534 0.5076267
000180 07 f9 a5 3e 31 34 86 3a 0e a8 80 be a4 61 01 3f
       0.32416555 0.0010238943 -0.25128216 0.5053961

mu_head.weight f4 [1, 100]
000000 28 e7 bb 3d df 6b 54 3e b3 26 66 be 1f 67 ad 3e
       0.09174949 0.20744275 -0.224757 0.33867738
000010 13 13 77 bd 80 ff 4e be be 7b 91 3e e2 b1 65 3d
       -0.060320925 -0.20214653 0.2841472 0.056077845
000020 4a 4d c5 bd ae c0 40 bd f9 e1 4d be 95 bc ea bd
       -0.09633882 -0.047058754 -0.20105733 -0.114617504
000030 74 15 41 3e aa 7a 53 3e 2d 4f 14 bd 45 86 29 be
       0.1885584 0.20652261 -0.03620832 -0.16555126
000040 56 d8 99 3d 12 b8 94 be df 20 2e 3e 69 5f ce 3d
       0.07511966 -0.29046685 0.17004727 0.10076792
000050 30 11 8f 3d ab bf 74 be f9 53 ab 3d 20 f0 9a 3e
       0.069857 -0.2390124 0.08365626 0.30261326
000060 48 9e a3 bd bc 52 9e bd 62 62 4b 3d 31 5e b4 bd
       -0.07989174 -0.07730624 0.049654372 -0.08807028
000070 e4 99 41 bd 5d a5 9b bd 8b 3f 87 be 8e d6 96 3e
       -0.047265902 -0.075999 -0.26415667 0.29460567
000080 c5 d2 01 3e 29 7d e8 bd 1f 12 3e be 7e ed 7f bd
       0.12678058 -0.113519974 -0.185616 -0.06248235
000090 bd 09 83 3c b1 fa f7 bd 91 0a 73 3e 30 77 6c be
       0.015995855 -0.121083625 0.237345 -0.23092341
0000a0 34 30 c9 bd 9f 5d d3 bd 89 eb 59 3d 1a d5 68 3e
       -0.09823647 -0.10320591 0.05320314 0.22737542
0000b0 df 76 18 bc 31 66 cb 3d b4 19 3d be f0 9d ac bd
       -0.009305685 0.09931601 -0.18466836 -0.08428562
0000c0 f7 57 35 3e 24 4e 00 be f8 24 ac 3d 59 95 a2 3d
       0.17709337 -0.12529808 0.08405489 0.07938642
0000d0 8d db d8 3e 75 d6 24 3e 95 2b 56 be 18 f9 82 3e
       0.42355004 0.16097434 -0.20915063 0.25580668
0000e0 b9 fb 24 3e 24 fb cf bd 52 a8 ac be 78 c3 14 be
       0.1611165 -0.10155323 -0.33722168 -0.1452769
0000f0 8d 22 0e be 44 de 37 be b9 08 2a bc 6f 71 8e be
       -0.13880368 -0.17955881 -0.010378056 -0.27820918
000100 51 b4 3c bd d4 45 78 3e 4c e4 2e 3d e8 66 43 3d
       -0.0460704 0.24245387 0.04269819 0.04770556
000110 08 a7 95 be bc c6 ab be 5b b9 90 3e 12 a8 58 3e
       -0.29228997 -0.3355006 0.28266415 0.21157864
000120 5e 6d 5c 3e 05 db f1 3d 5c 6a 15 3e 53 47 e6 bd
       0.21526095 0.11809353 0.14591354 -0.11244073
000130 2b 23 07 be 79 2b 8e bc fa 3e ad bd 5d fc 6c 3e
       -0.1319701 -0.017354714 -0.084592775 0.23143144
000140 48 b1 48 be 69 13 e8 bd 73 fc 0d 3e 4c 9d 6c 3e
       -0.19598877 -0.11331827 0.13865833 0.23106879
000150 e0 39 08 3e c7 fc 8e 3e 1d 7a 1d 3e 93 6e 72 bd
       0.13303328 0.2792723 0.15378614 -0.059187483
000160 e2 fb 9b 3e 3e 70 9f be 61 2d cb bd 88 c9 f9 3d
       0.3046561 -0.31140321 -0.09920765 0.12196642
000170 78 d6 d5 3e 63 92 bf bd 33 ae 74 3e 80 7b 83 bc
       0.4176519 -0.09354093 0.23894577 -0.0160501
000180 e1 0d 10 be 91 30 cd be 1d 34 3a 3e a3 0a 24 bc
       -0.14067794 -0.40076116 0.18183942 -0.010012302

sigma_head.weight f4 [1, 100]
000000 6e b0 b7 3d db ba 6b 3d 9b d2 37 be fa 95 94 3d
       0.08969198 0.057551246 -0.17951433 0.07255168
000010 04 f3 84 bd 40 8e 80 3d 19 dc 01 3d ca 2f 03 bd
       -0.06491664 0.06277132 0.031704042 -0.032027997
000020 d7 cf 57 3d a4 a1 71 bd 47 66 9a 3d 30 51 e2 3c
       0.052688446 -0.058992043 0.07539039 0.027626604
000030 1c d7 98 3c 03 7a ad 3d 13 e0 87 3d 27 25 53 bd
       0.01865726 0.084705375 0.06634536 -0.051549103
000040 25 69 30 3d 59 f2 7e 3d 11 a0 a7 bd 1b 87 2b 3d
       0.043069024 0.06224284 -0.08184827 0.041876893
000050 a2 78 e0 bb e3 9a 7c bd 3e 88 d4 bc 98 d9 3c bd
       -0.006850318 -0.06167115 -0.025943872 -0.04610595
000060 fa f4 f5 bc 69 02 a9 3d cf e5 f5 b9 f2 1d b4 bc
       -0.03002404 0.08252413 -0.00046901262 -0.021986935
000070 14 9d d7 bd f0 f6 0d 3e 15 cf 14 3e cb 5f e7 bb
       -0.10528007 0.1386373 0.1453212 -0.00706098
000080 f8 42 b1 bd 7e e6 93 bd fb 4f 6e 3d f7 d9 09 3c
       -0.086553514 -0.07221697 0.058181744 0.008413783
000090 b7 b9 bd bd 0a 6a 02 bd 33 08 1e bc fc cc ab bd
       -0.09263938 -0.031839408 -0.0096455095 -0.08388707
0000a0 80 4c 5a 3d 9d 3f 83 3d 65 8c a7 bd 7c c8 c7 3c
       0.053295612 0.06408618 -0.08181075 0.02438759
0000b0 04 ba de 3d 10 c5 fe bd e0 ca d6 3c 71 6e dc bd
       0.108753234 -0.124399304 0.026219785 -0.107632525
0000c0 46 2b d1 3d 07 bd 93 bd b3 09 02 be 4c 87 d4 3d
       0.10213332 -0.072137885 -0.12699012 0.10377368
0000d0 a8 20 06 bd 5e 09 17 bd 4b 14 15 3d 44 75 a3 bd
       -0.032745987 -0.036874168 0.036396306 -0.07981351
0000e0 f2 24 2e bb 4a aa 9f 3d 97 b8 da bb 18 ce f9 bd
       -0.0026572314 0.07796152 -0.006674837 -0.121975124
0000f0 ab 69 37 bd 0c e1 0d 3d cd 09 ea 3d f7 c8 70 bd
       -0.044778507 0.03463845 0.114276506 -0.058785405
000100 e3 4c e3 3d 17 54 56 bd 7b 16 96 bd b8 29 39 3e
       0.11098649 -0.052326288 -0.073285066 0.1808232
000110 ef 46 59 3d 28 6e e8 3d 46 0b c3 3c ad 6e 44 bd
       0.053046163 0.11349136 0.023809087 -0.04795711
000120 a3 95 8c bd 68 e3 b5 3c 66 b6 08 3e 18 e8 9f 3d
       -0.068644784 0.022203162 0.1335083 0.0780794
000130 78 f0 16 be b7 ef 58 3d 5c 5b c5 3d 90 43 4e bd
       -0.14740169 0.052962985 0.09636566 -0.0503574
000140 ad 97 0c be c8 70 bb bd 7d 37 af 3c c4 39 11 bd
       -0.13729735 -0.09152371 0.021388764 -0.03545548
000150 9a 55 09 bd fd f5 c7 bc de 56 21 3d 1d 69 d0 3d
       -0.0335289 -0.024409289 0.039389484 0.10176299
000160 e4 75 24 3e c0 ae 54 bd e1 eb 5f bd 5d 43 44 bd
       0.16060597 -0.051924467 -0.05466831 -0.047915805
000170 a8 78 43 3e 21 ff c7 3d 61 33 65 3d 2c b3 11 be
       0.19088995 0.09765459 0.055957202 -0.14228505
000180 c3 1f bc 3d 45 95 cc 3d c4 73 b1 3d 87 c6 dc bd
       0.091857456 0.099894084 0.08664659 -0.107800536
