param/ppo_anet_params.pkl (torch_old, 3391 bytes, 4 tensors)

fc.weight f4 [100, 3]
0.083422504 0.19188374 -0.48322996 -0.50755024 -0.255892 0.18605636 0.061863393 0.5696729
-0.00256277 0.2001349 -0.43077362 -0.13370234 -0.43141624 -0.43400767 -0.21023175 0.14269719
0.33491978 0.37098265 -0.4361612 -0.39382538 0.23127432 0.40456396 -0.33022982 0.41676372
-0.032018594 0.24987526 0.5387803 -0.5095561 -0.3696842 -0.10447822 -0.37621233 0.5140936
-0.40848842 -0.42927602 -0.2631145 -0.5393837 -0.47299546 0.3616485 0.26142648 0.43658626
-0.22351423 -0.3003531 -0.07547999 -0.46423343 -0.43158415 -0.17326753 0.537368 0.3206397
-0.23857296 0.05223421 0.3791442 0.5807234 0.48297334 0.16792656 0.37299618 -0.6028497
0.06478983 -0.25285867 -0.55834293 -0.30577242 0.37968636 0.15063392 -0.3371423 0.15207732
0.503867 -0.0072582504 -0.012962931 0.0022151845 0.3291671 0.6345324 -0.6607689 -0.23193961
0.18601248 0.3293684 0.49470702 0.38125968 0.24808845 -0.50723827 0.08704937 -0.45632434
-0.49390545 0.43447208 0.61119235 -0.5598361 0.16902779 0.06714527 -0.03901482 -0.2511846
0.13967802 -0.36606452 0.31683677 0.43185934 0.44108427 0.42859563 -0.6665145 -0.384867
0.3948726 -0.028896574 -0.4516057 -0.26171294 0.4835082 0.3724109 -0.41948745 -0.073910944
-0.55457497 -0.15534125 -0.3133881 -0.44261986 0.098067224 0.0051712613 -0.21551226 0.43764776
-0.16505308 0.52561027 0.4215239 -0.7450092 -0.17476617 0.1235749 0.32455814 0.0956697
0.08285589 0.12909032 -0.28831875 0.097140566 -0.46070284 -0.330279 -0.109669626 -0.30582458
-0.15211979 -0.5117034 -0.2813757 0.13576308 -0.3241335 0.06880511 0.42386356 -0.01430789
-0.17414127 -0.055046383 0.21277638 0.57346416 0.5543236 0.47421283 0.5624497 -0.06285697
-0.5530359 -0.21202402 0.43468776 -0.12904665 -0.12848279 -0.43363324 -0.4704485 -0.53823954
-0.05081885 0.352212 0.123268284 -0.58637977 0.4496275 -0.64635795 -0.16862977 -0.12590449
-0.3583547 -0.07387716 -0.63026756 -0.39096496 -0.13984057 -0.049445275 -0.4805436 0.19906706
-0.63487744 -0.22585136 0.4997769 -0.36711177 0.5380258 0.2353101 -0.65377057 0.39378384
-0.18639438 -0.28854442 0.6037879 -0.45733768 0.18055484 -0.020258185 0.40875208 0.32431737
0.32158634 0.26049125 -0.09948744 -0.24849175 -0.49453333 0.4267825 0.65487206 0.3816079
-0.39445433 -0.09489085 -0.42352164 -0.36397788 -0.5820617 0.16589166 -0.38981432 0.052120946
0.016332228 0.22765397 -0.48843795 -0.38359863 -0.5073669 0.3999158 -0.25177547 0.5031242
0.4548752 0.15531555 -0.11153796 -0.11318654 0.11228962 -0.18141587 -0.23862767 0.07525999
-0.5184887 -0.43773192 0.4669878 -0.5543622 -0.07284749 0.5699081 0.2944229 -0.12751068
-0.51179206 0.13415164 -0.37300882 -0.10747949 -0.16897242 0.0945435 0.0100327665 0.35490492
-0.04711071 0.5366795 0.35202488 -0.16154326 0.29601854 -0.44153965 -0.4723752 0.15127099
0.19949323 0.6457475 -0.13780047 -0.05623554 0.4328158 -0.5489065 0.37903014 -0.4480444
0.044978518 -0.11939698 -0.5383651 0.07012132 0.5825484 -0.322575 -0.3128373 -0.264462
00000000: 6bd9 aa3d 2c7d 443e eb69 f7be d0ee 01bf
00000010: 4704 83be 8f85 3e3e 7864 7d3d 15d6 113f
00000020: 25f4 27bb 2af0 4c3e 5c8e dcbe 44e9 08be
00000030: 97e2 dcbe 4136 debe fe46 57be 361f 123e
00000040: 9b7a ab3e 70f1 bd3e 8550 dfbe 7ba3 c9be
00000050: 2dd3 6c3e 0223 cf3e e213 a9be 0e62 d53e
00000060: ee25 03bd 4ddf 7f3e 81ed 093f 4572 02bf
00000070: 3f47 bdbe adf8 d5bd e79e c0be a39b 033f
00000080: 6525 d1be 11ca dbbe f2b6 86be 0d15 0abf
00000090: 762c f2be fe29 b93e b1d9 853e 3c88 df3e
000000a0: eae0 64be e2c7 99be 4195 9abd 01b0 edbe
000000b0: 99f8 dcbe 0b6d 31be f390 093f e32a a43e
000000c0: 784c 74be 8af3 553d 301f c23e 4aaa 143f
000000d0: 4848 f73e f1f4 2b3e 5bf9 be3e 5c54 1abf
000000e0: 88b0 843d b176 81be 90ef 0ebf 348e 9cbe
000000f0: 4066 c23e c73f 1a3e ea9d acbe 28ba 1b3e
00000100: 6dfd 003f 9ed6 edbb 7962 54bc a12c 113b
00000110: 9788 a83e b770 223f 2728 29bf 9481 6dbe
00000120: 0e7a 3e3e faa2 a83e 3d4a fd3e 7834 c33e
00000130: e60a 7e3e 5eda 01bf f146 b23d 58a3 e9be
00000140: 2de1 fcbe 2073 de3e 1a77 1c3f 6b51 0fbf
00000150: 9f15 2d3e 7683 893d 01ce 1fbd 459b 80be
00000160: c107 0f3e cf6c bbbe 6e38 a23e ab1c dd3e
00000170: ccd5 e13e e370 db3e b2a0 2abf 4a0d c5be
00000180: be2c ca3e 82b8 ecbc dd38 e7be 3dff 85be
00000190: 638e f73e a4ac be3e 0fc7 d6be 9f5e 97bd
000001a0: a0f8 0dbf c711 1fbe 6874 a0be 129f e2be
000001b0: 78d7 c83d af73 a93b 3faf 5cbe 5e13 e03e
000001c0: ad03 29be 658e 063f fbd1 d73e ecb8 3ebf
000001d0: e7f5 32be d614 fd3d 7c2c a63e 7aee c33d
000001e0: 59b0 a93d 4130 043e 849e 93be a2f1 c63d
000001f0: 3ee1 ebbe 541a a9be 789a e0bd 0a95 9cbe
00000200: 4ac5 1bbe fefe 02bf 7a10 90be 7a05 0b3e
00000210: d3f4 a5be b2e9 8c3d a504 d93e a46b 6abc
00000220: 1752 32be 5178 61bd 0de2 593e 8cce 123f
00000230: 27e8 0d3f 06cc f23e b4fc 0f3f 28bb 80bd
00000240: c393 0dbf d31c 59be 658f de3e ce24 04be
00000250: fe90 03be 2d05 debe a0de f0be 11ca 09bf
00000260: 6d27 50bd 2255 b43e 1574 fc3d fc1c 16bf
00000270: 9335 e63e b777 25bf 48ad 2cbe 1bed 00be
00000280: 447a b7be e94c 97bd 3759 21bf 8f2c c8be
00000290: 5e32 0fbe 2187 4abd d009 f6be 3cd8 4b3e
000002a0: 5487 22bf 9445 67be c2e2 ff3e 13f6 bbbe
000002b0: 0fbc 093f 21f5 703e 825d 27bf 099e c93e
000002c0: 2bde 3ebe 18bc 93be d891 1a3f 2a28 eabe
000002d0: 5ee3 383e 7ef4 a5bc f447 d13e ed0c a63e
000002e0: f7a6 a43e 1c5f 853e 12c0 cbbd 9f74 7ebe
000002f0: 7933 fdbe 3c83 da3e b2a5 273f 1c62 c33e
00000300: ebf5 c9be 2256 c2bd d4d7 d8be 4f5b babe
00000310: ff01 15bf 81df 293e be95 c7be c67c 553d
00000320: 2acb 853c 1f1e 693e 8a14 fabe 0a67 c4be
00000330: cce2 01bf c4c1 cc3e b7e8 80be bfcc 003f
00000340: 67e5 e83e 0a0b 1f3e 046e e4bd 58ce e7bd
00000350: 1af8 e53d 15c5 39be d05a 74be e921 9a3d
00000360: adbb 04bf 661e e0be 0619 ef3e aeea 0dbf
00000370: 1131 95bd 7fe5 113f 99be 963e 2992 02be
00000380: ce04 03bf 0c5f 093e 03fb bebe 351e dcbd
00000390: 1b07 2dbe 06a0 c13d 7960 243c 19b6 b53e
000003a0: 29f7 40bd d463 093f 9b3c b43e 996b 25be
000003b0: be8f 973e 7c11 e2be 2adb f1be c8e6 1a3e
000003c0: f447 4c3e b54f 253f 911b 0dbe 3d57 66bd
000003d0: 089a dd3e 2385 0cbf 3d10 c23e 1366 e5be
000003e0: 653b 383d 6786 f4bd 4cd2 09bf c49b 8f3d
000003f0: e421 153f 8d28 a5be 362c a0be 9067 87be

fc.bias f4 [100]
-0.28749916 0.15059851 -0.17491491 0.1574362 0.1512736 -0.36827922 0.14445332 0.25068593
0.2443295 -0.08042107 -0.42902583 -0.11837846 0.12212396 -0.17933276 0.15080236 0.45586303
-0.30927274 0.011823163 0.3231352 0.13917948 0.027250215 0.20525531 -0.4723063 0.10155052
0.3765432 0.5290762 0.34495795 0.1257071 0.3101972 -0.27110827 -0.41956973 -0.33436748
0.570947 0.37043953 -0.41655958 0.16704856 0.44646773 0.59380054 0.4975775 0.50155705
-0.1376341 -0.2849358 0.48319256 0.3661709 -0.34867758 0.51658976 0.31892458 0.3234442
-0.3441713 0.122070365 -0.23634136 0.43298542 0.014964893 0.2964813 0.056591835 0.266655
-0.20148003 0.25188974 -0.26473907 0.16249974 -0.36351994 -0.4414177 -0.45276344 0.5034623
0.3432607 0.56288636 0.45548585 -0.6060069 -0.3367679 -0.06876496 -0.33693495 0.37648675
-0.41251922 -0.30738673 -0.5583372 -0.45622241 0.48483545 0.4364006 0.3835361 0.47541726
0.5639161 -0.13038088 0.22758499 0.5152651 0.21260026 0.6107746 0.38893485 0.32699838
-0.11177541 0.37796172 0.0535586 -0.1056133 -0.22127329 -0.3210983 -0.42304766 0.42898116
0.38405555 0.0021569964 -0.31110626 0.43448588
00000000: 1733 93be 7f36 1a3e e51c 33be f536 213e
00000010: 77e7 1a3e 188f bcbe 92eb 133e e859 803e
00000020: 8331 7a3e cdb3 a4bd 46a9 dbbe 6870 f2bd
00000030: 201c fa3d 02a3 37be ef6b 1a3e e166 e93e
00000040: ff58 9ebe f1b5 413c fa71 a53e 1185 0e3e
00000050: d83b df3c 732e 523e 22d2 f1be b8f9 cf3d
00000060: 45ca c03e 8a71 073f 549e b03e 5db9 003e
00000070: 2bd2 9e3e b4ce 8abe d8d1 d6be 3732 abbe
00000080: 9529 123f 40aa bd3e 4c47 d5be c70e 2b3e
00000090: 6b97 e43e 5003 183f 7ac2 fe3e 0b66 003f
000000a0: f4ef 0cbe 1be3 91be 0465 f73e c17a bb3e
000000b0: de85 b2be 3a3f 043f 154a a33e 7a9a a53e
000000c0: 3837 b0be 0700 fa3d 7803 72be 44b0 dd3e
000000d0: 502f 753c 66cc 973e d7cc 673d 0187 883e
000000e0: c850 4ebe b1f7 803e e18b 87be 5566 263e
000000f0: 491f babe 8001 e2be 9cd0 e7be e8e2 003f
00000100: debf af3e 5219 103f 7135 e93e 4523 1bbf
00000110: d86c acbe a5d4 8cbd bd82 acbe dfc2 c03e
00000120: b835 d3be cb61 9dbe 30ef 0ebf fc95 e9be
00000130: 5a3c f83e e66f df3e d85e c43e e469 f33e
00000140: ce5c 103f 9182 05be 0a0c 693e 6ae8 033f
00000150: e2b3 593e b95b 1c3f 7822 c73e 556c a73e
00000160: 82ea e4bd 3384 c13e 4360 5b3d c94b d8bd
00000170: 7795 62be ff66 a4be b499 d8be 6ba3 db3e
00000180: eea2 c43e 655c 0d3b 5249 9fbe ef74 de3e

mu_head.weight f4 [1, 100]
0.053675234 0.071565606 -0.15730195 0.24965127 0.019938856 -0.1055541 0.16199198 0.07131112
-0.055780128 0.009241091 -0.10325831 -0.023304855 0.06451566 0.0749457 -0.013710374 -0.0820804
-0.0086254245 -0.18558311 0.08479769 0.10661442 0.007506128 -0.1802276 0.01025011 0.2162526
-0.0005572269 -0.08171833 0.01792993 -0.086842395 -0.04040947 0.007814105 -0.12587236 0.11983876
0.097443715 -0.028922504 -0.08418853 -0.009940269 0.011580442 -0.0765534 0.19056188 -0.16571958
-0.08729913 -0.029026093 0.02082057 0.13060768 -0.07082505 0.098563544 -0.093619436 -0.062060695
0.048496645 -0.0814473 0.04799177 0.060419653 0.31956303 0.12480744 -0.09715639 0.14316897
0.041859414 -0.015472139 -0.20520595 -0.08073661 -0.09930865 -0.104690775 0.026728345 -0.16422954
0.015771773 0.13481922 -0.0043902555 -0.0019814202 -0.16363493 -0.21794643 0.09636138 0.13761596
0.10441746 0.014537192 0.06138355 -0.044586524 -0.09931545 0.021294445 -0.05110794 0.12562196
-0.15508264 -0.07520306 0.022293594 0.14595585 0.061998542 0.16402076 0.11889946 0.005240839
0.17971094 -0.1897121 -0.03360592 0.045431934 0.2989021 -0.0632794 0.0985635 -0.01789215
-0.09356835 -0.26495758 0.12905277 0.031015098
00000000: 90da 5b3d fd90 923d c313 21be 95a4 7f3e
00000010: d056 a33c bf2c d8bd 3ae1 253e 910b 923d
00000020: b479 64bd f267 173c 1879 d3bd d3e9 bebc
00000030: c920 843d 227d 993d 7aa1 60bc c519 a8bd
00000040: a751 0dbc 8009 3ebe 69aa ad3d a958 da3d
00000050: f7f5 f53b 958d 38be 14f0 273c 5271 5d3e
00000060: dd12 12ba f15b a7bd cae1 923c 6dda b1bd
00000070: 6784 25bd bb06 003c afe4 00be 066e f53d
00000080: 9290 c73d e3ee ecbc 096b acbd 83dc 22bc
00000090: e5bb 3d3c 07c8 9cbd a722 433e 65b2 29be
000000a0: e3c9 b2bd 21c8 edbc e68f aa3c 05be 053e
000000b0: b90c 91bd afdb c93d 8cbb bfbd 5b33 7ebd
000000c0: 6ba4 463d d8cd a6bd 0593 443d 997a 773d
000000d0: c49d a33e 0b9b ff3d eef9 c6bd e39a 123e
000000e0: c774 2b3d db7e 7dbc 8221 52be 3c59 a5bd
000000f0: 5562 cbbd 1e68 d6bd 67f5 da3c ca2b 28be
00000100: ce33 813c 0d0e 0a3e 22dc 8fbb b7da 01bb
00000110: ea8f 27be 592d 5fbe 1d59 c53d 33eb 0c3e
00000120: d2d8 d53d 672d 6e3c 516d 7b3d 5ca0 36bd
00000130: e665 cbbd b071 ae3c 8f56 51bd 0ba3 003e
00000140: fccd 1ebe 1004 9abd 0ea1 b63c 7375 153e
00000150: 2ff2 7d3d 0ff5 273e 8f81 f33d 58bb ab3b
00000160: 2506 383e e443 42be 5ca6 09bd d616 3a3d
00000170: b209 993e a198 81bd a9db c93d 8f92 92bc
00000180: c3a0 bfbd 85a8 87be 6926 043e 6013 fe3c

sigma_head.weight f4 [1, 100]
0.081687436 0.07763236 0.03861393 0.054025475 -0.00379215 0.078550324 0.060255013 -0.02614475
0.060525455 0.023132188 0.09434877 0.01783853 0.043070737 0.010962341 0.06635063 -0.00020027255
0.046554066 0.028081307 -0.077837475 0.067378 -0.03756774 -0.018083552 -0.029672798 -0.09489132
-0.015753075 0.08754595 -0.007716002 -0.0018584817 -0.07470555 0.12942857 0.14268397 -0.052434757
-0.09043769 -0.020810504 0.043796517 0.007106843 -0.06520118 -0.035241373 -0.024585541 -0.05142539
0.038701877 0.013411612 -0.023673406 0.05745202 0.12037571 -0.077096134 0.037754595 -0.10501929
0.12726186 -0.06306413 -0.06630509 0.09585811 -0.07774177 0.028003698 0.051983334 -0.021400599
0.012358466 0.1501484 0.03373818 -0.067896314 -0.037071086 0.035524927 0.0810832 -0.04044953
0.12628934 -0.008529362 0.027456598 0.11413657 0.08785826 0.08099012 0.09701954 0.0016838505
-0.041488126 0.029330403 0.095031925 0.0324923 -0.06484477 0.054818988 0.084007934 -0.0022948657
-0.10896522 -0.06788605 -0.02403762 -0.014616632 -0.07573728 0.01743291 0.06124932 0.10839499
0.08192545 0.0005637095 -0.051045742 -0.07535697 0.09135231 0.070132785 0.10999062 -0.13758188
0.12723406 0.1258532 0.108076 -0.05019149
00000000: be4b a73d b7fd 9e3d a429 1e3d d149 5d3d
00000010: b885 78bb fede a03d f6cd 763d 842d d6bc
00000020: 8ae9 773d b77f bd3c ee39 c13d 1c22 923c
00000030: f16a 303d 649b 333c d7e2 873d 4100 52b9
00000040: 7aaf 3e3d c50a e63c 4169 9fbd 7afd 893d
00000050: a1e0 19bd f523 94bc 5e14 f3bc 6156 c2bd
00000060: 980c 81bc 4b4b b33d 84d6 fcbb 4c98 f3ba
00000070: 39ff 98bd ec88 043e bf1b 123e d4c5 56bd
00000080: 6537 b9bd ca7a aabc fa63 333d 85e0 e83b
00000090: 3288 85bd 4259 10bd 9e67 c9bc 6ea3 52bd
000000a0: dc85 1e3d 61bc 5b3c bbee c1bc cf52 6b3d
000000b0: 8a87 f63d 94e4 9dbd 90a4 1a3d 5a14 d7bd
000000c0: ef50 023e c427 81bd f7ca 87bd 4251 c43d
000000d0: 1437 9fbd 0368 e53c 7aec 543d 4f50 afbc
000000e0: 2a7b 4a3c 81c0 193e 0c31 0a3d 390d 8bbd
000000f0: dad7 17bd 9682 113d f30e a63d 68ae 25bd
00000100: fe51 013e bdbe 0bbc a9ec e03c 6fc0 e93d
00000110: 08ef b33d 26de a53d 2eb2 c63d a6b4 dc3a
00000120: 74ef 29bd 5046 f03c 19a0 c23d a516 053d
00000130: 56cd 84bd e089 603d 5a0c ac3d 7565 16bb
00000140: 2829 dfbd d707 8bbd 8bea c4bc 997a 6fbc
00000150: 261c 9bbd 76cf 8e3c 91e0 7a3d 31fe dd3d
00000160: 88c8 a73d e7c5 133a 5715 51bd c154 9abd
00000170: eb16 bb3d c7a1 8f3d c342 e13d 44e2 0cbe
00000180: a549 023e a9df 003e f356 dd3d 9895 4dbd
