param/ppo_cnet_params.pkl (torch_old, 2749 bytes, 3 tensors)

fc.weight f4 [100, 3]
0	0xbf194303	-0.59867877
1	0x3e33d755	0.17562611
2	0xbe7714e6	-0.24129066
3	0xbf24f7af	-0.64440435
4	0xbda10fff	-0.07864379
5	0xbe851e40	-0.2599964
6	0xbf359194	-0.7092526
7	0xbe5e874a	-0.21731296
8	0xbe6b8c28	-0.23002684
9	0xbeeaf4d9	-0.4588993
10	0x3f1c87d6	0.6114477
11	0xbe8a7dcb	-0.27049097
12	0x3f6e4f4b	0.9308974
13	0x3fe0edba	1.7572548
14	0x3e8e9e9b	0.2785538
15	0x3c280b69	0.010256627
16	0x3fcb040c	1.586061
17	0x3e88ee73	0.26744422
18	0xbf2e8bd1	-0.6818209
19	0x3fcec8f3	1.6155075
20	0x3ec5acef	0.386085
21	0xbea8620f	-0.32887313
22	0xbfa8487f	-1.3147124
23	0xbe9d3550	-0.30704737
24	0x3f9a38f7	1.2048634
25	0xbf7ecccb	-0.9953124
26	0xbedd46ba	-0.43218023
27	0x3f060d29	0.5236383
28	0x3f8f3a67	1.1189698
29	0xbce33f70	-0.02774021
30	0x3f2e3b4a	0.6805922
31	0x3f6036d3	0.87583655
32	0x3e840d83	0.2579156
33	0xbe86f8c7	-0.26361677
34	0xbfbd37f0	-1.4782696
35	0xbeadee10	-0.3397069
36	0xbf5d4cf4	-0.86445546
37	0xbe2dd60a	-0.1697618
38	0xbea2877c	-0.3174399
39	0x3f09b40f	0.5379037
40	0x3f753297	0.9578032
41	0x3e5737be	0.21017358
42	0xbf40eb73	-0.75359267
43	0x3bbcf6fb	0.005766747
44	0xbe8f9db5	-0.28050008
45	0x3f81301d	1.0092808
46	0xbf407930	-0.7518492
47	0xbe045d61	-0.12926246
48	0xbf34a998	-0.7057128
49	0x3f0abf97	0.5419859
50	0x3f14195a	0.57851183
51	0xbf243d16	-0.6415571
52	0xbfadaf62	-1.3569148
53	0xbe9357aa	-0.2877782
54	0x3f2bbe18	0.67086935
55	0x3ed46298	0.4148147
56	0xbe90e6f9	-0.28301218
57	0x3f9e52ef	1.2369059
58	0xbf4527af	-0.7701368
59	0xbdff309c	-0.124604434
60	0x3ebfa592	0.37431008
61	0xbebf0050	-0.37304926
62	0x3bdfa554	0.0068251286
63	0x3f82b42e	1.0211236
64	0x3f4ba1d4	0.79543805
65	0x3ece7d70	0.40330076
66	0xbefb2ee3	-0.4905921
67	0xbe215368	-0.15754473
68	0xbf2af1fb	-0.6677548
69	0x3f6fdb89	0.9369436
70	0x3f9a91d3	1.2075752
71	0xbe345e56	-0.17614111
72	0x3ee7bf4b	0.45263132
73	0x3f879bc6	1.0594413
74	0xbdb328d6	-0.08748023
75	0xbeafe17b	-0.34351715
76	0x3f985730	1.1901608
77	0xbe9751c3	-0.29554567
78	0x3f04b645	0.5184062
79	0x3ea57adc	0.32320297
80	0x3e88278b	0.2659267
81	0x3dc7c15f	0.097536795
82	0xbcdc3771	-0.026881905
83	0x3ef664bb	0.48123726
84	0x3edbfb1f	0.42965028
85	0xbf5fb9c5	-0.87392837
86	0x3eb2df68	0.3493607
87	0x3e90b99d	0.28266612
88	0x3db45c7e	0.08806704
89	0xbee377f1	-0.44427446
90	0x3e06fcf1	0.13182427
91	0x3f90c084	1.1308751
92	0xbee11796	-0.43963307
93	0xbf4a824d	-0.79105073
94	0xbde22d2a	-0.110437706
95	0xbe9e445b	-0.30911526
96	0x3f4060dd	0.751478
97	0xbeefbd12	-0.46823937
98	0xbe6aef64	-0.22942883
99	0x3eb1af14	0.34703887
100	0xbf099123	-0.53737086
101	0x3eadb27e	0.3392524
102	0xbf2a34c7	-0.6648678
103	0xbe27dead	-0.16393538
104	0xbe75d1da	-0.24005833
105	0x3fba4d22	1.4554789
106	0x3f42e61b	0.76132363
107	0x3eb74d9e	0.35801405
108	0xbecc56ea	-0.3991006
109	0xbfb2b9b0	-1.3962917
110	0xbe83f862	-0.2577544
111	0xbf485d74	-0.782676
112	0xbe2277f9	-0.15866078
113	0xbea1d531	-0.31607965
114	0xbf6d3113	-0.92653006
115	0x3f932fd3	1.149897
116	0x3eadbf38	0.3393495
117	0x3f25251c	0.6450975
118	0xbdf7232f	-0.120672576
119	0xbf1340dc	-0.5752084
120	0x3f625b12	0.8842021
121	0xbf9ba83b	-1.2160715
122	0xbea20c55	-0.31650034
123	0x3c68a7ca	0.01420016
124	0xbd9f65ad	-0.07783065
125	0xbf1d4137	-0.61427635
126	0x3f162b97	0.5866026
127	0x3f27e897	0.6558928
128	0x3e4efc88	0.2021352
129	0x3f57008c	0.8398521
130	0x3f5d8800	0.86535645
131	0x3e90a4ea	0.2825082
132	0xbf1e4444	-0.61822915
133	0x3fa465c9	1.2843562
134	0xbce7194d	-0.028210307
135	0x3f216890	0.63050175
136	0x3cc98d93	0.02460364
137	0xbeabb9d8	-0.33540225
138	0xbfa3918d	-1.2778794
139	0x3f52911d	0.82252675
140	0x3ed2cf93	0.41173992
141	0x3f151377	0.58232826
142	0x3fcc1b3a	1.5945809
143	0x3ebea948	0.37238526
144	0x3f61157c	0.8792341
145	0xbd857018	-0.06515521
146	0x3db2dead	0.08733878
147	0xbb1f61c1	-0.002431974
148	0xbf9579df	-1.1677817
149	0xbe8ededd	-0.27904406
150	0x3f959047	1.1684655
151	0x3d1442a8	0.03619638
152	0x3bd4c5a6	0.006493288
153	0xbf2e4df4	-0.680877
154	0xbc6893e0	-0.014195412
155	0x3f241c8f	0.64106077
156	0xbf502ba0	-0.81316566
157	0xbedd01f7	-0.43165562
158	0xbe67b4d1	-0.2262757
159	0x3f29f79b	0.6639344
160	0xbf351328	-0.70732355
161	0x3ed0d96f	0.4079089
162	0x3e1b2af1	0.151531
163	0xbec25e46	-0.3796255
164	0x3ea1f19d	0.3162965
165	0x3f7f5c0d	0.99749833
166	0x3b5a2ff4	0.0033292742
167	0x3cec15f3	0.02881906
168	0x3ebafa9e	0.3651933
169	0xbf5a9f7a	-0.8539959
170	0x3ebca914	0.36847746
171	0x3f07c67f	0.53037256
172	0xbeb02edc	-0.3441075
173	0xbeff794a	-0.49897224
174	0xbf2826af	-0.65684026
175	0x3fbb510d	1.463411
176	0x3ed52a0c	0.41633642
177	0xbf6508e2	-0.8946668
178	0x3e5f29fa	0.21793357
179	0x3f3411a3	0.7033941
180	0x3f18816d	0.5957249
181	0xbe17aa71	-0.14811112
182	0xbe6130e9	-0.21991314
183	0x3f89cecd	1.0766236
184	0xbea0432e	-0.31301254
185	0xbea631d1	-0.32459882
186	0x3cf5cb40	0.030004144
187	0x3dd11ed0	0.10210955
188	0xba002400	-0.0004888177
189	0x3ece5194	0.40296614
190	0x3fc02afe	1.501312
191	0x3ead4651	0.3384271
192	0xbf7bde4b	-0.9838607
193	0xbf75087d	-0.9571608
194	0xbea7f270	-0.32802153
195	0xbe08b6cc	-0.13350981
196	0xbf8c4d33	-1.0961059
197	0xbe46d169	-0.19415821
198	0x3e9c1761	0.30486587
199	0xbe08514f	-0.13312267
200	0x3f14c9a3	0.58120173
201	0xbf168316	-0.5879377
202	0x3e00dbb8	0.12583816
203	0x3f277d49	0.65425545
204	0x3f2f1de9	0.68405014
205	0x3f0a9ce7	0.54145664
206	0x3ea2d65a	0.31804162
207	0x3f3187fa	0.6934811
208	0xbf9574b7	-1.1676244
209	0xbc6edb0d	-0.014578593
210	0x3eb33d93	0.35007915
211	0xbe9ae568	-0.30253148
212	0x3dbbaf7b	0.091643296
213	0xbe0be347	-0.13660918
214	0x3ec6f41e	0.38858122
215	0x3e91c68f	0.284718
216	0xbf96f0c4	-1.1792226
217	0x3fa90b20	1.320652
218	0x3ef74943	0.48298082
219	0xbead17e2	-0.33807284
220	0xb78ce938	-1.6797901e-05
221	0xbe18ae7c	-0.1491031
222	0xbec2e38f	-0.38064238
223	0xbf3755c4	-0.7161524
224	0x3d9a4266	0.07532196
225	0xbf61302c	-0.8796413
226	0x3e25670d	0.16152592
227	0x3e905f46	0.28197688
228	0x3f8664b6	1.0499485
229	0xbd31b05c	-0.04338108
230	0xbce69a96	-0.028149884
231	0xbf12e65c	-0.5738275
232	0x3dcd4b7f	0.10024165
233	0x3f19f9de	0.6014689
234	0x3f45755a	0.7713219
235	0xbf85efb3	-1.0463775
236	0x3de33c43	0.110954784
237	0x3fa37698	1.2770567
238	0x3f86aa6b	1.0520757
239	0x3ea14dd1	0.31504682
240	0x3f1e07d1	0.61730677
241	0x3f8005e6	1.00018
242	0x3e68574c	0.22689551
243	0x3e2d6a3b	0.16935055
244	0x3fd4b022	1.6616251
245	0x3ec60007	0.38671896
246	0x3ecc81d7	0.3994281
247	0x3f501e03	0.81295794
248	0x3c72eccf	0.014826967
249	0x3f65f9aa	0.8983408
250	0xbf7aa9c3	-0.97915286
251	0xbe984365	-0.29738918
252	0x3e2782c5	0.16358478
253	0xbf5f07c9	-0.87121254
254	0x3ee86313	0.45388088
255	0xbeacaa84	-0.33723843

fc.bias f4 [100]
0	0x3f95862a	1.1681569
1	0x3f833bf0	1.0252666
2	0x3f504b0b	0.81364506
3	0xbdd92e64	-0.106045514
4	0xbf1c74c0	-0.61115646
5	0x3e978aad	0.2959799
6	0x3e872676	0.2639653
7	0x3d0c2b38	0.034220904
8	0x3e9d596b	0.30732283
9	0x3ee4b81b	0.4467171
10	0x3e8aeb52	0.2713266
11	0x3ca95fd1	0.020675572
12	0x3f97b3b7	1.185172
13	0x3ebccab2	0.36873394
14	0xbf816104	-1.0107732
15	0xbf4b33d7	-0.79375976
16	0xbe0b3178	-0.1359309
17	0x3eb822c3	0.3596402
18	0x3f210cce	0.62910163
19	0xbf87d917	-1.0613126
20	0xbf183899	-0.5946136
21	0x3eed1ccc	0.46311033
22	0xbe351f13	-0.17687635
23	0xbf047bc4	-0.5175135
24	0x3ebdf6ae	0.37102264
25	0xbea9facf	-0.33199164
26	0x3ee55b73	0.44796333
27	0x3e447646	0.19185743
28	0x3ed0580e	0.4069218
29	0xbf0d1e4f	-0.5512437
30	0x3dd81385	0.10550598
31	0x3f980637	1.1876897
32	0x3f2fad20	0.6862354
33	0x3ebcc43b	0.36868462
34	0x3f64c4bb	0.89362687
35	0xbf90718e	-1.1284654
36	0x3f0a1b6a	0.5394808
37	0xbf8ac370	-1.0840893
38	0x3f156a8e	0.58365715
39	0xbe934b03	-0.28768167
40	0xbef89e74	-0.4855839
41	0xbf232343	-0.6372568
42	0x3e0f66a0	0.14003992
43	0x3e308122	0.1723676
44	0xbf1dba53	-0.61612433
45	0xbfbc4676	-1.4709003
46	0x3f8a57ac	1.0808005
47	0xbe27fa49	-0.1640407
48	0xbf10b940	-0.5653267
49	0x3e28faf8	0.16501987
50	0xbf29e0ae	-0.6635846
51	0xbf4d09b0	-0.80092907
52	0x3f2a86d2	0.6661197
53	0x3f38f9aa	0.7225596
54	0x3e74526e	0.2385957
55	0xbf15d40a	-0.5852667
56	0x3e9d531b	0.30727467
57	0xbe031910	-0.1280253
58	0xbf50aa3b	-0.8150975
59	0xbe437abc	-0.19089788
60	0x3f63541d	0.8880022
61	0xbf87b7cc	-1.0602965
62	0xbf12f90b	-0.5741126
63	0xbd4c6d61	-0.049909
64	0x3f260e7a	0.6486584
65	0x3e88a6ab	0.26689658
66	0x3e64bc54	0.22337466
67	0x3d96a6f3	0.07356062
68	0x3eaf6c31	0.3426223
69	0xbedb80f2	-0.42871815
70	0x3f0f7f85	0.56053954
71	0x3f3f5afb	0.747482
72	0xbf0839bd	-0.532131
73	0x3f278749	0.65440804
74	0x3f10e3f5	0.56597835
75	0x3f8c6dbb	1.0970987
76	0xbf0ada48	-0.5423932
77	0xbc845e82	-0.016158346
78	0xbf1d6028	-0.6147485
79	0xbf5f053f	-0.8711738
80	0x3eb65ba2	0.35616785
81	0x3e16d2e0	0.1472888
82	0x3eab40d0	0.33447886
83	0x3e95733b	0.29189476
84	0xbe1322fe	-0.14368817
85	0xbec7d5cd	-0.39030305
86	0x3ea52b62	0.3225966
87	0x3e6a75c5	0.22896488
88	0xbca41b0f	-0.020032434
89	0x3f07a559	0.52986676
90	0x3f7699ce	0.9632844
91	0xbe98f647	-0.29875395
92	0x3f65f762	0.898306
93	0x3f9230cf	1.1421145
94	0x3ed89845	0.42303672
95	0x3f5b76cb	0.8572814
96	0x3ed89533	0.4230133
97	0x3dc8d1d9	0.0980565
98	0x3f6b04e3	0.9180433
99	0xbef9e317	-0.48806068

v_head.weight f4 [1, 100]
0	0xbed49be8	-0.41525197
1	0xbf1529ee	-0.58267105
2	0xbf2cae62	-0.6745359
3	0x3d40e21a	0.047090627
4	0xbf9fe768	-1.2492495
5	0xbf6d0d8a	-0.92598784
6	0xbf5fe5a0	-0.87459755
7	0xbe7bac28	-0.24577391
8	0x3ea64579	0.32474878
9	0x3f0538e7	0.5203995
10	0x3f20ffff	0.6289062
11	0xbeb330ed	-0.34998265
12	0xbf080703	-0.531357
13	0x3f371196	0.7151121
14	0x3eb09a41	0.34492686
15	0xbf772f49	-0.96556526
16	0x3e4b7834	0.19870073
17	0xbf048b7a	-0.51775324
18	0x3e9ca474	0.30594218
19	0xbfda5e32	-1.7059996
20	0xbc8bbb19	-0.017056989
21	0x3ebc725b	0.36805996
22	0x3ddf688f	0.10908615
23	0xbfa901ed	-1.3203713
24	0x3ed2327b	0.4105414
25	0x3f3d051c	0.7383592
26	0x3d8a378a	0.067488745
27	0x3e16ba1c	0.14719433
28	0x3e5564ed	0.20839281
29	0x3e450a79	0.19242276
30	0x3f04507e	0.5168532
31	0xbed9f98a	-0.42573196
32	0x3e7ee993	0.24893789
33	0x3e43e295	0.19129403
34	0xbf3779de	-0.7167033
35	0xbfbb9778	-1.46556
36	0xbec53b51	-0.38521817
37	0x3f09490b	0.5362708
38	0xbf22b290	-0.63553715
39	0x3e93d30d	0.28871956
40	0xbf3402fa	-0.7031704
41	0x3e61da17	0.22055851
42	0x3f015aa7	0.5052895
43	0x3f35a16b	0.7094943
44	0x3f914243	1.1348346
45	0xbf938ad7	-1.1526746
46	0xbf49d711	-0.7884379
47	0xbf35ab4c	-0.70964503
48	0x3f68cb7d	0.909355
49	0xbf2db7a0	-0.67858315
50	0x3f7dcf33	0.99144286
51	0x3eef3acd	0.4672455
52	0xbf2bcc3a	-0.671085
53	0x3d819f66	0.06329231
54	0x3ea09922	0.3136683
55	0x3f6460f7	0.89210457
56	0x3e8f6469	0.28006294
57	0x3e296323	0.16541724
58	0x3ed602cb	0.41799006
59	0x3ebb27fd	0.36553946
60	0x3e89d6b7	0.26921627
61	0xbf26ec6b	-0.65204495
62	0xbd2b16aa	-0.04176966
63	0xbf517e2f	-0.81833166
64	0xbef8e30e	-0.4861073
65	0xbf076d8a	-0.5290152
66	0x3e129a9f	0.14316796
67	0x3e0b96ad	0.13631697
68	0x3e9e91d5	0.30970636
69	0xbf31efc8	-0.695065
70	0x3cb1d3f3	0.02170751
71	0xbdac53d0	-0.084144235
72	0x3f0c8e1b	0.54904336
73	0xbed98dae	-0.42490906
74	0xbf31cbf9	-0.6945186
75	0xbf4e6aed	-0.80631906
76	0x3f7c989d	0.9867037
77	0x3e93a66a	0.288379
78	0xbfa03985	-1.2517554
79	0xbfb59f71	-1.4189283
80	0x3f21c34c	0.63188624
81	0xbf271061	-0.6525937
82	0x3f177f67	0.59178776
83	0x3ee7763c	0.45207393
84	0x3f100792	0.5626155
85	0x3e0b2bd9	0.13590945
86	0x3f042c32	0.51629937
87	0x3d76d7b1	0.060264293
88	0xbf33d268	-0.7024293
89	0xbd0b7551	-0.03404743
90	0xbf44a4cd	-0.76813966
91	0x3e0e5f3e	0.1390352
92	0xbf20beb9	-0.6279102
93	0xbf0a90e4	-0.54127336
94	0x3f285f6c	0.657706
95	0xbf20b46e	-0.62775314
96	0xbf54a749	-0.83067757
97	0x3e6c627b	0.23084442
98	0xbf474205	-0.7783511
99	0xbf6fe305	-0.9370578
